experiments/basic/run_1/models/model_seen9M.pth (torch, 7692 bytes, 18 tensors)

transformer.wte.weight f4 [4, 4]
00000000: 89b3 443e a93f db3e 6361 3ebe 1a27 e4be
00000010: 11e3 32bc 063c 1a3e 664b aa3e 23b4 a0be
00000020: 5ea6 5abe 9cbc c0be 110c e13e eb78 ac3e
00000030: e619 1cbe ef50 4b3d e1bf 153c d16b 1c3e
0.19209112 0.42822006 -0.18591838 -0.44561082 -0.010918395 0.1506196 0.3326065 -0.31387433
-0.21352527 -0.37643898 0.43954518 0.33686003 -0.15244254 0.04963773 0.009139986 0.15275504

transformer.wpe.weight f4 [6, 4]
00000000: b31f 0dbe a7c7 413d c0aa a53d 9df8 9cbe
00000010: 2280 903c 1849 5b3d 1b55 ce3c 4ae6 90bd
00000020: e11c 6d3d ffe8 7abb 5b5a 12bd f6ec 25bd
00000030: 446f f93d 2ed7 e2bb 0159 13bd ccf2 283c
00000040: 1c30 2c3e cbea 94bc d973 89bd 20db 523d
00000050: 64ec 2d3e f46e 23bd ee1e cebd b400 4a3d
-0.13781624 0.047309544 0.080892086 -0.30658427 0.017639223 0.053536505 0.025187066 -0.07075174
0.05788887 -0.003828585 -0.0357307 -0.040509187 0.12179425 -0.006922624 -0.035973553 0.010311794
0.16815227 -0.018178364 -0.06711549 0.051478505 0.16984707 -0.039900735 -0.10064493 0.049317077

transformer.h.0.ln_1.weight f4 [4]
00000000: 26d9 ac3f eef9 aa3f 6c1e b13f cf62 963f
1.3503768 1.3357522 1.3837409 1.1748904

transformer.h.0.ln_1.bias f4 [4]
00000000: 5a2a acbd cfa2 2a3d 5ba2 cebc 487b 833c
-0.084065154 0.041659173 -0.025223901 0.016049996

transformer.h.0.attn.bias f4 [1, 1, 6, 6]
00000000: 0000 803f 0000 0000 0000 0000 0000 0000
00000010: 0000 0000 0000 0000 0000 803f 0000 803f
00000020: 0000 0000 0000 0000 0000 0000 0000 0000
00000030: 0000 803f 0000 803f 0000 803f 0000 0000
00000040: 0000 0000 0000 0000 0000 803f 0000 803f
00000050: 0000 803f 0000 803f 0000 0000 0000 0000
00000060: 0000 803f 0000 803f 0000 803f 0000 803f
00000070: 0000 803f 0000 0000 0000 803f 0000 803f
00000080: 0000 803f 0000 803f 0000 803f 0000 803f
1.0 0.0 0.0 0.0 0.0 0.0 1.0 1.0
0.0 0.0 0.0 0.0 1.0 1.0 1.0 0.0
0.0 0.0 1.0 1.0 1.0 1.0 0.0 0.0
1.0 1.0 1.0 1.0 1.0 0.0 1.0 1.0
1.0 1.0 1.0 1.0

transformer.h.0.attn.c_attn.weight f4 [12, 4]
00000000: 7121 a83d 8f95 363e cb71 30be ba1b b43d
00000010: 881e 163e 7002 b4be 82ef cd3d 75dd 57bc
00000020: 6972 e73d 155a 3a3e 32c6 25be 9f60 58bd
00000030: 90ca d5bd 991b 11bd f497 7fbd 1944 033e
00000040: 484e c43e f36a 2bbe e97d 32be cd50 013e
00000050: 5852 28be 7f24 2c3e d09d a93d da21 49be
00000060: b2f4 9dbe 3d8b 0a3e d8b5 323c c9cd 273e
00000070: 1771 9f3e f8e4 47be 1ba2 14bd 8560 e9bb
00000080: b3db 103d ccfb 323e 1862 51be 0b46 023d
00000090: d994 68bb d771 3ebe c3af 4d3e 230f 56bd
000000a0: b959 39bd 1bf5 653d 07a4 2dbe 5d60 473e
000000b0: 8802 2d3b 8662 483e 6d6d 4dbe 60d9 8a3d
0.082095034 0.1783049 -0.17230909 0.08794351 0.14660084 -0.3515811 0.10055448 -0.013175358
0.11301119 0.18198426 -0.16188887 -0.05282652 -0.10439026 -0.03542671 -0.062400773 0.12818946
0.38340974 -0.16740017 -0.17430843 0.1262848 -0.16437662 0.16810797 0.082820535 -0.1964182
-0.3085075 0.13529678 0.010907613 0.16387095 0.31140968 -0.19520938 -0.03628741 -0.0071221017
0.03536577 0.17478865 -0.20447576 0.03180508 -0.003548911 -0.18598114 0.20086579 -0.05226053
-0.04525158 0.056141954 -0.16957103 0.19470353 0.0026399214 0.19568834 -0.20061274 0.06779742

transformer.h.0.attn.c_attn.bias f4 [12]
00000000: 452b 6a3f bdcb f8be 3815 8ebe 6592 e03e
00000010: 9ec3 983d 9d5d 813b cb1d 413d 8cbb 0abd
00000020: a92b a23c a643 babc b110 383c 1999 863c
0.91472274 -0.4859294 -0.27750564 0.4386169 0.07459186 0.003947927 0.047147553 -0.033870265
0.01979621 -0.022737335 0.011234448 0.016430425

transformer.h.0.attn.c_proj.weight f4 [4, 4]
00000000: 3b68 cdbd c55e 363e aa7f bbbe 1787 49be
00000010: d121 883e 1e1e 98be b21e d23d 285e ab3e
00000020: 80ad 02be 239c e43d 5968 4d3e 1b91 fabd
00000030: 9acc afbd 8d3a b23d 3956 4b3d 7d59 a3bd
-0.10029646 0.17809589 -0.36620837 -0.19680439 0.265883 -0.29710478 0.10259761 0.33470273
-0.12761497 0.11162593 0.20059337 -0.12234708 -0.085839465 0.08702574 0.049642775 -0.07976053

transformer.h.0.attn.c_proj.bias f4 [4]
00000000: e845 f33b a810 0a3c 5133 ddbd 4339 633c
0.007424105 0.008426823 -0.108008035 0.013868633

transformer.h.0.ln_2.weight f4 [4]
00000000: e347 b63f a0ad ad3f 4b73 b73f ebc5 bc3f
1.4240688 1.3568611 1.433206 1.47479

transformer.h.0.ln_2.bias f4 [4]
00000000: 48ca df3c b7ea 3fbd 86c5 08bd 310a 9b3d
0.027318135 -0.0468547 -0.033391498 0.07570303

transformer.h.0.mlp.c_fc.weight f4 [16, 4]
00000000: 0cdf f2bd c171 853e 5f0f 7c3e 4fb0 53be
00000010: 1706 33be 70bb f03d 9d2c d23d aca1 c3bb
00000020: 75c9 95be 3d41 d4bd efdc b33e b307 4d3c
00000030: 0a0f 103e 91a9 3ebe 5749 463b 7ca2 d5bc
00000040: 9b57 853e 22fa c3bc bdf0 85be 3502 dc3b
00000050: e6df b13e 22d9 81be fca5 09be 7064 613c
00000060: 1a7e 813e 5e08 83be 99fa 46bd 9564 dd3a
00000070: bf29 57be 928b 43be a7ce 2b3e 5cbc 433e
00000080: 9254 a5b9 d8b5 11be 5aa2 043e d45d 85bd
00000090: 8721 5cbe 4f98 0abe 3dc9 78bd ba51 c03e
000000a0: cd60 a0bc dd86 30be 379f 6f3e e5fc 6bbd
000000b0: 1d2c a63e 4086 00bc ce95 9abe 3a60 f2bc
000000c0: 53ce 39be 902b 90bd f6ce 7e3e 194a 233d
000000d0: b5f7 65be 8e43 893e a15e 9f3e e09e 56be
000000e0: 1f4f b6bd daf7 9abd f2c9 a6bd b1ce 1d3e
000000f0: b3a9 89be b0b2 d9bd b53b 9c3e 3c4a ce3a
-0.11858949 0.2606335 0.24615239 -0.20672725 -0.17482792 0.11754501 0.102624156 -0.0059702005
-0.29255262 -0.10364006 0.35129496 0.012514043 0.14068237 -0.18619372 0.0030256116 -0.026078455
0.260434 -0.023922984 -0.2616023 0.0067141303 0.34741133 -0.25360972 -0.13442224 0.013756856
0.2529152 -0.2559232 -0.048578832 0.0016890938 -0.21012019 -0.1909621 0.1677805 0.19114822
-0.00031534262 -0.14229524 0.12952557 -0.06512037 -0.21497165 -0.13534664 -0.06073879 0.37562352
-0.019577408 -0.17238946 0.2340058 -0.057614226 0.3245553 -0.007844508 -0.30192417 -0.0295869
-0.18145113 -0.07039559 0.24883637 0.039865587 -0.22457774 0.26809353 0.31126884 -0.20959044
-0.0890181 -0.07566805 -0.08143987 0.15410878 -0.26887283 -0.10629785 0.30514303 0.0015738676

transformer.h.0.mlp.c_fc.bias f4 [16]
00000000: bd9d 073e 4e13 9c3d 8ad2 373e be67 f03b
00000010: 92ec 1a3e d5e6 bb3c 5fb8 753d 3c89 103e
00000020: 7a15 c33c 01ab b13d 56db f63d 11a8 223e
00000030: 098a d93d 9819 413e 0768 243e 4550 1b3e
0.13243766 0.076208696 0.17951408 0.007336586 0.15129307 0.022937218 0.059990283 0.14114851
0.023813952 0.086751945 0.12053554 0.15884425 0.10622031 0.1885742 0.16055308 0.15167339

transformer.h.0.mlp.c_proj.weight f4 [4, 16]
00000000: b74a 903e e804 513d 062c 02bd f1ad 42be
00000010: ab21 26be e096 61be be45 61be 26b2 a6bd
00000020: ece0 01be aebd d8bd bdfa 09be 18af d3bd
00000030: d222 32bd c55f 7b3e 2e2b 3cbe d85e cbbc
00000040: 87a3 e6bd d70b 27be 0a3b 1bbd 85d9 583d
00000050: e740 d8bd 4032 b2bc 76e2 723d ae5f 793d
00000060: 6760 ae3d 4ff3 4a3e 2e27 003e 7243 15be
00000070: ad85 7dbb 6d3a fdbd df08 c13d 2b08 98bc
00000080: ff42 c4bd daa2 493c 4cb2 2bbe d633 863d
00000090: d918 653e bc7d ae3e 4ad7 243e da8c 25be
000000a0: e42c 82bd 4979 37be 58be f5bd 8fbc 783e
000000b0: 72aa 03be fa76 a9bd 7bca 9a3c 84f4 17be
000000c0: 5306 7b3d 2fd1 ff3d 5d61 793e 3815 a3bb
000000d0: 9362 1ebd 5b5d b5bd be3e bdbd 5955 473e
000000e0: 44c9 0a3d 6c18 a53d 6760 8b3d 20aa 6abd
000000f0: 4c83 3c3e 8b1c d73d f608 173c 7caf 6b3e
0.28182003 0.05103007 -0.031780265 -0.19011666 -0.16223781 -0.2203021 -0.21999261 -0.08139448
-0.12683457 -0.105830535 -0.13474555 -0.10336131 -0.04349024 0.24548252 -0.18375847 -0.024825498
-0.11261659 -0.1631311 -0.0378981 0.052941818 -0.10559254 -0.021752477 0.059298 0.060882263
0.08514481 0.19819377 0.12514946 -0.1457651 -0.0038684413 -0.123646595 0.0942552 -0.018558582
-0.09583091 0.012306893 -0.16767234 0.06552856 0.2237276 0.34080303 0.16097751 -0.16167012
-0.063562185 -0.1791736 -0.11999196 0.2429068 -0.12857988 -0.08274646 0.018895378 -0.14839369
0.061285328 0.124910705 0.24353547 -0.0049768947 -0.038668226 -0.08855697 -0.09240483 0.19466151
0.033883348 0.08061299 0.06805497 -0.05729115 0.18409461 0.10503491 0.009218445 0.2301616

transformer.h.0.mlp.c_proj.bias f4 [4]
00000000: d564 cebb 213b 10bd 0a2a c2ba 4a4b 453d
-0.006298641 -0.03521264 -0.0014813554 0.048167504

transformer.ln_f.weight f4 [4]
00000000: 7460 ce3f b548 1140 9aac 0f40 6530 0840
1.6123185 2.2700627 2.2449098 2.1279538

transformer.ln_f.bias f4 [4]
00000000: 3ff2 da3e 8faf 3bbe 4dcf a3be 4561 ae3c
0.42762944 -0.18328689 -0.31994095 0.021286616

lm_head.weight f4 [4, 4]
00000000: 89b3 443e a93f db3e 6361 3ebe 1a27 e4be
00000010: 11e3 32bc 063c 1a3e 664b aa3e 23b4 a0be
00000020: 5ea6 5abe 9cbc c0be 110c e13e eb78 ac3e
00000030: e619 1cbe ef50 4b3d e1bf 153c d16b 1c3e
0.19209112 0.42822006 -0.18591838 -0.44561082 -0.010918395 0.1506196 0.3326065 -0.31387433
-0.21352527 -0.37643898 0.43954518 0.33686003 -0.15244254 0.04963773 0.009139986 0.15275504
