experiments/basic/run_2/models/model_seen9M.pth (torch, 7692 bytes, 18 tensors)

transformer.wte.weight f4 [4, 4]
-0.41294366 0.24340576 0.37434655 -0.24099685 -0.24291259 0.104786575 0.26646623 0.026167065
0.34180272 -0.26761606 -0.37503615 0.25338337 0.230642 -0.032457706 -0.24894774 0.05188209
00000000: 5a6d d3be 5c3f 793e 5aaa bf3e e1c7 76be
00000010: 14be 78be 589a d63d 436e 883e 505c d63c
00000020: c400 af3e f904 89be bd04 c0be 77bb 813e
00000030: 6b2d 6c3e 5ff2 04bd 28ec 7ebe 5082 543d

transformer.wpe.weight f4 [6, 4]
-0.007229909 -0.06408867 0.37514636 0.0031200529 0.035338886 -0.0056654415 0.17033176 0.0045410125
-0.03884137 -0.010077852 0.03073008 -0.0028074568 -0.06456708 0.024375912 -0.04404506 0.020139752
-0.09476217 0.062397126 -0.09536646 0.046329703 -0.12398456 0.06469367 -0.092470035 0.07221732
00000000: dfe8 ecbb ec40 83bd 2f13 c03e cd79 4c3b
00000010: 82bf 103d 2ba5 b9bb 736b 2e3e c6cc 943b
00000020: 2118 1fbd 931d 25bc a6bd fb3c 4ffd 37bb
00000030: bf3b 84bd feaf c73c 9868 34bd 1ffc a43c
00000040: ab12 c2bd 2194 7f3d 7e4f c3bd 37c4 3d3d
00000050: 9eeb fdbd 1d7e 843d ee60 bdbd ade6 933d

transformer.h.0.ln_1.weight f4 [4]
1.2003472 1.3694992 1.1818619 1.5106202
00000000: faa4 993f c04b af3f 4047 973f 015c c13f

transformer.h.0.ln_1.bias f4 [4]
0.024608728 0.04473479 -0.029720917 -0.046613786
00000000: 3e98 c93c d43b 373d 4879 f3bc 19ee 3ebd

transformer.h.0.attn.bias f4 [1, 1, 6, 6]
1.0 0.0 0.0 0.0 0.0 0.0 1.0 1.0
0.0 0.0 0.0 0.0 1.0 1.0 1.0 0.0
0.0 0.0 1.0 1.0 1.0 1.0 0.0 0.0
1.0 1.0 1.0 1.0 1.0 0.0 1.0 1.0
1.0 1.0 1.0 1.0
00000000: 0000 803f 0000 0000 0000 0000 0000 0000
00000010: 0000 0000 0000 0000 0000 803f 0000 803f
00000020: 0000 0000 0000 0000 0000 0000 0000 0000
00000030: 0000 803f 0000 803f 0000 803f 0000 0000
00000040: 0000 0000 0000 0000 0000 803f 0000 803f
00000050: 0000 803f 0000 803f 0000 0000 0000 0000
00000060: 0000 803f 0000 803f 0000 803f 0000 803f
00000070: 0000 803f 0000 0000 0000 803f 0000 803f
00000080: 0000 803f 0000 803f 0000 803f 0000 803f

transformer.h.0.attn.c_attn.weight f4 [12, 4]
-0.100985475 0.085271165 -0.0583322 0.40789264 0.1710272 -0.099977866 0.0054865386 -0.30073196
-0.10345833 0.036768183 -0.058999367 0.37364492 0.09670403 0.012155753 0.042577222 -0.37924215
-0.14166689 0.436395 -0.3640686 0.023537872 0.2714951 -0.50612706 0.26028058 0.024320474
-0.12896386 0.42386535 -0.32275537 -0.012727391 0.06177973 -0.40125236 0.28544036 0.056777675
0.13633707 0.11332662 -0.096568055 -0.31146657 -0.07727691 -0.17339812 0.08605052 0.2897838
0.007060525 0.27244073 -0.07225547 -0.23813185 0.0209825 0.25980586 -0.09062062 -0.23062032
00000000: 79d1 cebd a6a2 ae3d bfed 6ebd 4ed7 d03e
00000010: c121 2f3e 32c1 ccbd 6cc8 b33b 8af9 99be
00000020: f6e1 d3bd 3c9a 163d 52a9 71bd 634e bf3e
00000030: c30c c63d ec28 473c 7465 2e3d 072c c2be
00000040: 2011 11be 2a6f df3e 3367 babe 7fd2 c03c
00000050: 6801 8b3e 8b91 01bf 7f43 853e bb3b c73c
00000060: 1a0f 04be e104 d93e 3140 a5be 8c86 50bc
00000070: be0c 7d3d f370 cdbe 3d25 923e b58f 683d
00000080: f29b 0b3e c917 e83d 79c5 c5bd 8c78 9fbe
00000090: 5b43 9ebd 478f 31be 413b b03d 8b5e 943e
000000a0: fa5b e73b 5a7d 8b3e adfa 93bd d6d8 73be
000000b0: 7ee3 ab3c 4605 853e 4e97 b9bd bc27 6cbe

transformer.h.0.attn.c_attn.bias f4 [12]
0.058142725 -0.116738275 0.06264379 -0.04981961 0.09520556 -0.031178322 0.033939663 -0.033392616
0.044188317 -0.048928294 0.050356384 0.04437921
00000000: 1127 6e3d 7a14 efbd 634b 803d a60f 4cbd
00000010: 22fb c23d ae69 ffbc 5104 0b3d b2c6 08bd
00000020: cffe 343d 0969 48bd 7f42 4e3d f9c6 353d

transformer.h.0.attn.c_proj.weight f4 [4, 4]
-0.0043247407 0.062261272 -0.13543141 -0.16393068 0.8538255 -0.3796461 0.06120326 0.09523007
0.24060646 -0.3135958 0.34074104 0.37426198 -0.6082609 0.44023934 -0.23019782 -0.28364596
00000000: 8eb6 8dbb ad05 7f3d 88ae 0abe 72dd 27be
00000010: 4f94 5a3f f960 c2be 45b0 7a3d fc07 c33d
00000020: 8a61 763e a18f a0be 9c75 ae3e 449f bf3e
00000030: fdb6 1bbf 0d67 e13e fab8 6bbe 0b3a 91be

transformer.h.0.attn.c_proj.bias f4 [4]
0.058084536 0.024396053 0.090468965 -0.052078012
00000000: 0dea 6d3d 3bda c73c cb47 b93d c14f 55bd

transformer.h.0.ln_2.weight f4 [4]
1.2067431 1.2265942 1.177376 1.1425105
00000000: 8f76 9a3f 0a01 9d3f 42b4 963f c93d 923f

transformer.h.0.ln_2.bias f4 [4]
0.006425227 -0.0036298193 -0.015921222 0.08295687
00000000: b68a d23b 43e2 6dbb 396d 82bc 4be5 a93d

transformer.h.0.mlp.c_fc.weight f4 [16, 4]
0.096550554 -0.09177078 -0.091412954 0.12869404 0.093110204 -0.12776087 -0.07668808 0.06848582
-0.12186292 0.13563488 0.08986919 0.027663771 0.094847746 -0.06981292 -0.100849025 0.058962356
0.12998018 -0.18091464 -0.043551452 0.08449336 -0.14784822 0.12328595 0.12736239 -0.082789294
0.10635581 -0.13942745 -0.059782762 0.044937037 0.17425928 -0.28246924 -0.058395065 0.15539455
-0.12691091 0.10475729 0.08804138 0.020358978 0.13284831 -0.18872966 -0.088074945 0.15241592
-0.10326293 0.10914449 0.093325 0.0012037867 0.094699316 0.01827029 -0.11677551 -0.0031160288
-0.13176018 0.14501037 0.08786765 0.015893348 -0.14548756 0.113876715 0.10786977 -0.07120287
-0.10592444 0.11197935 0.07325512 0.00410594 -0.12146879 0.09416741 0.05263763 0.03637386
00000000: 4cbc c53d 52f2 bbbd b736 bbbd 5fc8 033e
00000010: 90b0 be3d bfd3 02be a40e 9dbd 4b42 8c3d
00000020: 4493 f9bd dfe3 0a3e 560d b83d 229f e23c
00000030: 893f c23d 14fa 8ebd ef89 cebd 8382 713d
00000040: 8619 053e b041 39be 0263 32bd db0a ad3d
00000050: 8665 17be 587d fc3d 496b 023e 6f8d a9bd
00000060: 13d1 d93d 12c6 0ebe c5de 74bd e60f 383d
00000070: 0671 323e cf9f 90be aa2f 6fbd c01f 1f3e
00000080: eff4 01be fd8a d63d 0a4f b43d dfc7 a63c
00000090: 6309 083e 5942 41be a360 b4bd eb12 1c3e
000000a0: 847b d3bd 2587 df3d 2d21 bf3d 61c8 9d3a
000000b0: b7f1 c13d 93ab 953c 0028 efbd 4a36 4cbb
000000c0: 24ec 06be 997d 143e f4f3 b33d c432 823c
000000d0: b1fa 14be 3238 e93d d3ea dc3d cfd2 91bd
000000e0: eaee d8bd 6e55 e53d c806 963d 1f8b 863b
000000f0: a1c4 f8bd d8da c03d 8e9a 573d c2fc 143d

transformer.h.0.mlp.c_fc.bias f4 [16]
0.0517166 0.055228516 0.019069225 0.057569463 0.06549039 0.053431705 0.058668185 0.11682851
0.03702395 0.09644923 0.008165609 0.0387303 0.025555363 0.062446006 0.007830262 0.015906947
00000000: c9d4 533d 4c37 623d 1037 9c3c f5cd 6b3d
00000010: d31f 863d 34db 5a3d 0d4e 703d c943 ef3d
00000020: 6da6 173d 2d87 c53d 0cc9 053c aaa3 1e3d
00000030: 7b59 d13c 62c7 7f3d 804a 003c 494f 823c

transformer.h.0.mlp.c_proj.weight f4 [4, 16]
0.05689576 0.0751627 0.0035905442 0.02451977 0.110782705 -0.04423789 0.07841636 0.16448641
0.022070311 0.11094316 0.017078606 -0.034694776 0.004587256 -0.046358705 -0.0111821415 0.011764513
-0.07644207 -0.041359898 -0.10688706 -0.026880708 -0.03792149 -0.08529915 -0.024127368 -0.062450454
-0.09028337 -0.07740834 -0.068378836 0.044284128 -0.09474791 -0.076672815 -0.06455736 -0.08305018
0.10754136 0.07566669 -0.0920069 0.09547946 0.051707216 -0.047452524 0.055511136 0.059155826
-0.06874478 0.08052162 -0.082163855 0.10621315 -0.08040107 -0.0349661 -0.081429884 -0.05502092
-0.10059119 -0.11906143 0.14690064 -0.101118274 -0.1012852 0.14688793 -0.1053323 -0.10464728
0.14066741 -0.103671074 0.14685996 -0.10270942 0.15778832 0.12146184 0.12341243 0.13120724
00000000: 870b 693d e7ee 993d 564f 6b3b afdd c83c
00000010: 0be2 e23d ca32 35bd c298 a03d 206f 283e
00000020: cccc b43c 2b36 e33d 6fe8 8b3c 1c1c 0ebd
00000030: b150 963b a0e2 3dbd 4d35 37bc f2bf 403c
00000040: a98d 9cbd ff68 29bd 9ae7 dabd ee34 dcbc
00000050: 9053 1bbd 52b1 aebd c2a6 c5bc 0ccc 7fbd
00000060: 7de6 b8bd 4488 9ebd 340a 8cbd 4663 353d
00000070: 310b c2bd a306 9dbd a636 84bd 3616 aabd
00000080: a53e dc3d 23f7 9a3d 1d6e bcbd bc8a c33d
00000090: f2ca 533d 945d 42bd a55f 633d 614d 723d
000000a0: 10ca 8cbd 85e8 a43d 8645 a8bd 4886 d93d
000000b0: 51a9 a4bd 9d38 0fbd b6c4 a6bd 9e5d 61bd
000000c0: c102 cebd 7bd6 f3bd 1f6d 163e 1917 cfbd
000000d0: 9d6e cfbd ca69 163e 76b8 d7bd 5051 d6bd
000000e0: 1e0b 103e 8051 d4bd 7562 163e 5159 d2bd
000000f0: 4393 213e fcc0 f83d a8bf fc3d 315b 063e

transformer.h.0.mlp.c_proj.bias f4 [4]
0.030321117 -0.028437963 0.049095687 -0.021258887
00000000: fe63 f83c bbf6 e8bc 8f18 493d 1e27 aebc

transformer.ln_f.weight f4 [4]
2.0201128 2.1288195 2.3238616 2.2940052
00000000: 8749 0140 943e 0840 26ba 1440 fbd0 1240

transformer.ln_f.bias f4 [4]
0.011953726 -0.12748456 -0.20537262 -0.19121988
00000000: 90d9 433c 508b 02be 334d 52be 25cf 43be

lm_head.weight f4 [4, 4]
-0.41294366 0.24340576 0.37434655 -0.24099685 -0.24291259 0.104786575 0.26646623 0.026167065
0.34180272 -0.26761606 -0.37503615 0.25338337 0.230642 -0.032457706 -0.24894774 0.05188209
00000000: 5a6d d3be 5c3f 793e 5aaa bf3e e1c7 76be
00000010: 14be 78be 589a d63d 436e 883e 505c d63c
00000020: c400 af3e f904 89be bd04 c0be 77bb 813e
00000030: 6b2d 6c3e 5ff2 04bd 28ec 7ebe 5082 543d
